model.onnx (onnx, 52489 bytes, 5 tensors)

StatefulPartitionedCall/sequential_2/dense_14/MatMul/ReadVariableOp:0 f4 [25, 2]
-0.35890672 0.03310719 -0.27346563 -0.32038313 -0.35744068 -0.20530382 0.23534182 -0.10454452
-0.4138217 0.40494975 -0.45885453 -0.46746576 0.3024759 -0.34232938 0.19223973 -0.29468313
-0.29983944 -0.27061647 0.37131295 0.025564373 0.08639565 -0.4336886 0.38698003 0.14115092
0.3702081 0.3122507 0.26420453 -0.24609287 0.17576936 -0.28134537 0.0044223964 -0.055120558
0.065631956 -0.27397227 0.3272499 -0.42648295 0.41628048 0.45607093 0.45375374 0.034875542
0.037983328 -0.37260365 0.33102122 0.09587756 -0.46170917 -0.25559118 0.2975138 -0.35932356
-0.20464274 0.03402564
00000000: 9fc2 b7be 689b 073d b003 8cbe 4209 a4be
00000010: 7702 b7be 2a3b 52be 72fd 703e 701b d6bd
00000020: 70e0 d3be 9355 cf3e fbee eabe ac57 efbe
00000030: 1fde 9a3e cc45 afbe 7eda 443e b5e0 96be
00000040: 8e84 99be 3e8e 8abe bb1c be3e 606c d13c
00000050: 34f0 b03d 6f0c debe 3f22 c63e de89 103e
00000060: eb8b bd3e 53df 9f3e d145 873e c5ff 7bbe
00000070: e2fc 333e 800c 90be c0e9 903b 18c6 61bd
00000080: 0c6a 863d 1846 8cbe 4d8d a73e f95b dabe
00000090: b722 d53e 2182 e93e 6952 e83e a8d9 0e3d
000000a0: 6894 1b3d e8c5 bebe 9d7b a93e 745b c43d
000000b0: 2565 ecbe d9dc 82be bb53 983e 42f9 b7be
000000c0: de8d 51be 785e 0b3d

StatefulPartitionedCall/sequential_2/dense_13/MatMul/ReadVariableOp:0 f4 [25, 25]
-0.2654958 0.2622288 0.105549574 0.09253889 -0.22455984 0.18867886 0.08316544 -0.3264404
0.24473095 -0.13821772 0.33466798 -0.08425507 0.12374848 0.2480008 0.10017118 -0.2563266
0.2071408 0.2345733 0.14379737 0.33015734 -0.31973892 -0.02416271 -0.0045875907 -0.25555593
-0.1534494 -0.168913 -0.16815838 0.30179703 -0.010420293 -0.016050816 0.18532073 -0.06664792
-0.028434634 0.31742346 -0.17793281 0.028963953 0.24690711 -0.23231395 -0.009352237 -0.0066721737
-0.13168792 0.33257562 -0.04097435 0.2925908 -0.20044248 0.3372298 0.1020796 0.17382985
0.33360368 -0.2905832 0.32294255 -0.059168994 0.21435773 -0.12966223 0.28743988 -0.2459214
-0.2642495 0.17626292 0.30718035 0.08362919 0.31332988 0.11924359 -0.013332039 -0.26218325
-0.25934353 -0.29861093 -0.3317614 -0.18889697 0.17348194 -0.2648008 0.005522579 0.009727031
0.075639635 0.0147719085 -0.27598885 0.10363594 -0.2263386 -0.046018988 0.2939698 -0.24169855
0.13358891 -0.029167712 -0.15279298 -0.00503695 0.055567056 -0.19543542 -0.08918911 -0.023924023
-0.20081264 -0.2868032 0.027447015 -0.09804398 0.2515493 0.0754666 0.28815436 -0.19072594
-0.1306795 0.0593507 0.28913027 -0.23751318 0.30008674 0.15897387 0.24288827 -0.19190499
-0.08323911 -0.26144397 0.1555847 0.13038522 -0.14460965 -0.30961984 -0.07992104 -0.09519717
0.041853458 -0.027587652 0.25339216 -0.07468629 -0.06992957 -0.29729253 0.12601304 0.07828367
-0.04770136 -0.075687855 -0.21456654 0.18686926 0.10264751 -0.060794055 -0.26775193 -0.009710431
-0.30751792 -0.14560074 0.19099194 -0.15428142 -0.28478575 -0.3377573 -0.26302427 -0.21019222
0.11204517 0.23399425 0.26211143 0.1379664 -0.034817398 -0.119114414 0.14974925 0.2909652
0.14091372 -0.0044538677 -0.13376534 -0.09520137 -0.13467193 0.20425451 -0.07458651 0.22613758
0.056852907 -0.028381944 -0.019296318 -0.3222433 -0.10355748 -0.17144912 0.21825784 0.3283372
0.07029626 0.016820908 0.06982532 0.07266778 0.32938665 -0.2366626 0.34530908 0.003731519
-0.16332625 -0.13330315 -0.07443249 -0.010837704 -0.075619966 0.3345139 -0.31099215 0.038130432
0.24506778 0.2636901 -0.1517416 0.23290157 -0.33993316 0.094377965 0.28182936 -0.33887276
0.060414135 0.300076 -0.19875391 0.21159476 -0.3428159 -0.17466636 -0.33125642 0.15729839
-0.17419675 0.099512696 -0.11702141 0.031502217 -0.124786735 -0.2162011 0.17502743 -0.06402764
0.046148926 0.03637424 -0.28760308 0.22142231 0.1503487 -0.024386376 -0.28717625 -0.15775254
0.12514558 0.32860756 0.10174322 0.26607758 -0.00563854 -0.08560774 0.22767466 -0.08868441
0.16961348 -0.2864994 -0.3264181 -0.26061097 0.1906076 0.16300952 -0.082125396 -0.08154875
0.042901605 0.12937143 -0.13200821 -0.02821517 -0.1359577 0.2533421 -0.32300803 -0.0051911473
0.2674361 0.32750577 -0.2723291 0.06674826 0.3178684 -0.2914438 0.33192474 0.10656625
0.14131823 0.33848822 -0.10074577 0.3159632 0.10762656 -0.32716438 0.013323188 -0.02073446
-0.030793577 -0.16068698 0.17949152 -0.0686034 -0.107278764 0.16013634 0.114661545 -0.024207234
00000000: 11ef 87be da42 863e 602a d83d 0885 bd3d
00000010: 04f3 65be 0835 413e a452 aa3d 3223 a7be
00000020: c09a 7a3e f288 0dbe 9a59 ab3e ec8d acbd
00000030: d86f fd3d ecf3 7d3e 8c26 cd3d 3d3d 83be
00000040: b81c 543e fc33 703e 9e3f 133e 620a a93e
00000050: d2b4 a3be e0f0 c5bc 8053 96bb 3ad8 82be
00000060: d721 1dbe 88f7 2cbe b631 2cbe 2485 9a3e
00000070: e0b9 2abc 007d 83bc b8c4 3d3e b47e 88bd
00000080: c0ef e8bc 5485 a23e 0534 36be d045 ed3c
00000090: 38d5 7c3e b5e3 6dbe 203a 19bc 40a2 dabb
000000a0: 33d9 06be 5a47 aa3e b8d4 27bd 76ce 953e
000000b0: cb40 4dbe 62a9 ac3e 1c0f d13d 7400 323e
000000c0: 1ace aa3e 52c7 94be ba58 a53e 305b 72bd
000000d0: 9880 5b3e 2dc6 04be 522b 933e d2d2 7bbe
000000e0: b64b 87be 447e 343e be46 9d3e c845 ab3d
000000f0: c66c a03e fc35 f43d a06e 5abc e23c 86be
00000100: adc8 84be 88e3 98be a1dc a9be 356e 41be
00000110: 40a5 313e f893 87be c0f6 b43b 205e 1f3c
00000120: f4e8 9a3d e005 723c 694e 8dbe 143f d43d
00000130: 4ec5 67be 687e 3cbd 3683 963e d37f 77be
00000140: 88cb 083e 20f1 eebc c375 1cbe 000d a5bb
00000150: 489a 633d 3920 48be c8a8 b6bd 50fc c3bc
00000160: d4a1 4dbe ded7 92be 90d8 e03c 48cb c8bd
00000170: 12cb 803e 3c8e 9a3d f888 933e a94d 43be
00000180: d9d0 05be b819 733d e208 943e a836 73be
00000190: f8a4 993e 0cca 223e b4b7 783e be82 44be
000001a0: 4479 aabd fcdb 85be 9851 1f3e b483 053e
000001b0: 8d14 14be 7e86 9ebe a4ad a3bd bcf6 c2bd
000001c0: 886e 2b3d 80ff e1bc 9ebc 813e 20f5 98bd
000001d0: 3c37 8fbd ba36 98be 9009 013e 3053 a03d
000001e0: 8062 43bd 3c02 9bbd 55b7 5bbe a85a 3f3e
000001f0: dc38 d23d 3003 79bd c816 89be 8018 1fbc
00000200: fd72 9dbe 5c18 15be 6493 433e f3fb 1dbe
00000210: 70cf 91be 86ee acbe 1eab 86be a13c 57be
00000220: f077 e53d 309c 6f3e 7833 863e 1047 0d3e
00000230: b09c 0ebd 42f2 f3bd de57 193e 64f9 943e
00000240: b04b 103e c0f1 91bb c8f9 08be f0f8 c2bd
00000250: 70e7 09be 1828 513e d0c0 98bd 9c90 673e
00000260: 98de 683d 4081 e8bc 5013 9ebc 13fd a4be
00000270: f215 d4bd 5c90 2fbe fc7e 5f3e d01b a83e
00000280: 7cf7 8f3d 00cc 893c 9400 8f3d d8d2 943d
00000290: 5ea5 a83e ae57 72be 5acc b03e 808c 743b
000002a0: ff3e 27be 9f80 08be 1070 98bd a090 31bc
000002b0: a4de 9abd 6845 ab3e 5d3a 9fbe a82e 1c3d
000002c0: 0cf3 7a3e 6402 873e 2662 1bbe c07d 6e3e
000002d0: b80b aebe 3c49 c13d f04b 903e bb80 adbe
000002e0: d074 773d 90a3 993e 2586 4bbe 4cac 583e
000002f0: 9185 afbe bddb 32be 719a a9be d412 213e
00000300: a260 32be 50cd cb3d eca8 efbd 7808 013d
00000310: 3090 ffbd d263 5dbe 643a 333e ec20 83bd
00000320: a806 3d3d 28fd 143d b640 93be 88bc 623e
00000330: 02f5 193e f0c5 c7bc c408 93be e289 21be
00000340: 2a26 003e 403f a83e c05e d03d 523b 883e
00000350: 80c3 b8bb 1c53 afbd 8c23 693e 2ca0 b5bd
00000360: 28af 2d3e 0db0 92be 4620 a7be cd6e 85be
00000370: a42e 433e f8eb 263e 5c31 a8bd 0803 a7bd
00000380: 98b9 2f3d f279 043e 292d 07be 8023 e7bc
00000390: 7f38 0bbe 0eb6 813e 4f61 a5be 801a aabb
000003a0: 62ed 883e d6ae a73e b86e 8bbe 50b3 883d
000003b0: a6bf a23e 1f38 95be 0af2 a93e 683f da3d
000003c0: bab5 103e 544e ad3e cc53 cebd eec5 a13e
000003d0: 506b dc3d 1782 a7be 8049 5a3c 50db a9bc
000003e0: d042 fcbc 218b 24be a0cc 373e f07f 8cbd
000003f0: f8b4 dbbd c8fa 233e acd3 ea3d 404e c6bc

StatefulPartitionedCall/sequential_2/dense_12/MatMul/ReadVariableOp:0 f4 [150, 25]
0.048863515 0.010350421 -0.14637263 0.024178535 -0.13322666 0.14487164 0.11018543 -0.13181287
0.009966612 -0.1228815 -0.033250034 -0.085940115 -0.014451593 -0.1681231 -0.11574733 0.13315572
-0.09170857 -0.03827934 -0.1807269 -0.18439825 -0.06425419 0.11874153 0.123910174 -0.17218724
0.1568286 0.15613826 0.16280235 -0.09604027 0.10849069 0.02746573 0.051317707 0.18026452
-0.05947934 0.13792445 -0.16172105 -0.14326316 0.15134843 -0.034058303 -0.09538072 0.05635898
-0.070101224 0.057634816 -0.0031992048 0.006789908 -0.13139957 0.1556298 0.1269146 0.043689355
0.13563345 0.12624533 -0.0624331 -0.11548471 0.08718659 -0.0073685497 0.040540427 -0.12375529
0.114950344 0.01020138 0.1068681 -0.058942303 -0.091975436 -0.11542259 0.13119332 0.10540782
-0.13377766 0.14948831 0.010982737 0.025643364 0.16417004 0.051880658 0.0422142 0.08528049
-0.04799162 -0.13823774 -0.05636984 0.04465577 -0.089046046 -0.17447667 0.026318401 0.15889506
-0.025120705 0.124840096 -0.066535994 0.17067145 0.1542346 -0.16042042 0.17847471 0.12432094
-0.12809813 -0.015828252 0.035135478 0.13404615 0.0780061 0.043978572 -0.156427 0.1674978
0.16293783 -0.1639373 0.084199384 -0.05722624 0.11022128 -0.099320404 -0.053236663 -0.060394235
0.12344171 0.04317704 -0.059686437 -0.10843534 0.025553614 -0.05422069 -0.016464844 0.15937065
-0.04741785 -0.16119006 -0.024731025 -0.17145395 0.009075955 -0.0039794594 -0.09324412 -0.08242164
0.03275536 -0.027690962 -0.10320808 0.043673158 0.08977036 0.112866804 -0.13068904 -0.18456133
-0.01919584 0.064468205 0.027902469 -0.13929796 0.18049817 -0.058750838 -0.035007507 -0.13149706
0.027685791 -0.081257276 -0.1358126 0.18481179 0.13978265 -0.07485691 0.08904083 -0.13890448
0.06657903 0.123750165 0.113388315 -0.04891424 -0.05724217 0.037903115 0.012782633 0.051475793
0.16663589 0.11610223 -0.1668022 -0.10277686 -0.13547456 -0.18312463 -0.11222475 0.041028112
-0.13864946 0.042539254 0.16805716 0.1278124 0.0802422 0.049758762 -0.06561143 -0.10004578
0.09116708 0.13181876 -0.031690955 0.042281434 -0.03943014 0.019402757 0.17613317 0.103842154
-0.099436335 0.005186379 -0.13219717 -0.17425294 -0.15428175 -0.1254458 0.0064731687 0.14628808
-0.08290487 0.08485775 -0.14489129 -0.12015245 0.112700775 0.100520894 -0.053540707 -0.10851617
-0.1211186 -0.06406913 0.054618716 -0.15703075 -0.049877867 0.05239272 -0.04186845 -0.027867198
0.1161692 -0.12892716 0.07623212 -0.067563504 -0.117895104 -0.056254387 -0.05227992 0.1598786
-0.12637787 -0.066861086 0.007974461 0.030333355 -0.12112151 -0.18409483 0.01224038 -0.15685377
0.092362985 -0.11055504 -0.17129119 -0.09366775 0.036766604 -0.099634685 0.14341839 0.062898934
-0.15694194 0.15026988 -0.1072199 -0.10479299 -0.1538367 -0.11936788 0.15397109 0.14026351
-0.12444274 0.101376936 -0.058538973 -0.009479627 0.12495105 0.12079601 0.07711466 -0.13225372
-0.06271175 0.11537509 0.12512209 -0.040450856 -0.08894019 -0.03919524 0.14026244 -0.071711995
-0.1222284 -0.021083638 -0.09531512 -0.14243533 0.022736222 -0.000988841 0.07878254 0.025238842
00000000: 1c25 483d d094 293c b5e2 15be 1012 c63c
00000010: 926c 08be 3b59 143e e6a8 e13d f4f9 06be
00000020: 004b 233c 4ca9 fbbd 3031 08bd 5f01 b0bd
00000030: 60c6 6cbc 7628 2cbe f00c edbd f959 083e
00000040: b4d1 bbbd ccca 1cbd 7910 39be e5d2 3cbe
00000050: b397 83bd c22e f33d 9ec4 fd3d da51 30be
00000060: ad97 203e b5e2 1f3e a9b5 263e c3b0 c4bd
00000070: 5e30 de3d d0ff e03c 8432 523d 4397 383e
00000080: 9ca0 73bd 113c 0d3e 349a 25be 94b3 12be
00000090: 15fb 1a3e b880 0bbd f856 c3bd acd8 663d
000000a0: 3b91 8fbd 7c12 6c3d c0a9 51bb e07d de3b
000000b0: 9c8d 06be 6b5d 1f3e e7f5 013e 9cf3 323d
000000c0: 7fe3 0a3e 7546 013e dab9 7fbd 3f83 ecbd
000000d0: e28e b23d e073 f1bb b80d 263d 6a73 fdbd
000000e0: 166b eb3d b023 273c aadd da3d 7c6d 71bd
000000f0: 9e5d bcbd ae62 ecbd 8b57 063e 0ee0 d73d
00000100: 03fd 08be 7713 193e f0f0 333c 0812 d23c
00000110: 311c 283e d080 543d cce8 2c3d 8aa7 ae3d
00000120: dc92 44bd 328e 0dbe 10e4 66bd f8e8 363d
00000130: c65d b6bd 03aa 32be b099 d73c 63b5 223e
00000140: f0c9 cdbc 2aac ff3d 0644 88bd 7fc4 2e3e
00000150: adef 1d3e 4045 24be 13c2 363e fa9b fe3d
00000160: 282c 03be 40aa 81bc 38ea 0f3d 6543 093e
00000170: aac1 9f3d e022 343d 662e 20be 8b84 2b3e
00000180: 2dd9 263e 2edf 27be ba70 ac3d 1066 6abd
00000190: b2bb e13d 7f68 cbbd b00e 5abd f25f 77bd
000001a0: 02cf fc3d 68da 303d c479 74bd 5913 debd
000001b0: d055 d13c 8416 5ebd 48e1 86bc 0f32 233e
000001c0: 3839 42bd 020f 25be b898 cabc a091 2fbe
000001d0: 50b3 143c 2066 82bb c6f6 bebd adcc a8bd
000001e0: 7c2a 063d 28d8 e2bc c25e d3bd a0e2 323d
000001f0: 86d9 b73d b626 e73d 59d3 05be a5fd 3cbe
00000200: 9840 9dbc e807 843d b893 e43c 20a4 0ebe
00000210: 83d4 383e b8a4 70bd 0864 0fbd 2aa7 06be
00000220: 50cd e23c 376a a6bd 7512 0bbe 4d3f 3d3e
00000230: 2f23 0f3e 944e 99bd 0a5b b63d fa3c 0ebe
00000240: 965a 883d ba70 fd3d 2238 e83d 4c5a 48bd
00000250: c476 6abd 4c40 1b3d 406e 513c 48d8 523d
00000260: 99a2 2a3e 02c7 ed3d 32ce 2abe ad7c d2bd
00000270: d8b9 0abe 0685 3bbe 17d6 e5bd 180d 283d
00000280: 20fa 0dbe a43d 2e3d 2d17 2c3e 41e1 023e
00000290: 0656 a43d d8cf 4b3d 495f 86bd cde4 ccbd
000002a0: ceb5 ba3d 7ffb 063e 60ce 01bd 4c2f 2d3d
000002b0: 8081 21bd 88f2 9e3c 415c 343e 32ab d43d
000002c0: 47a5 cbbd 80f2 a93b b25e 07be 5d6f 32be
000002d0: 09fc 1dbe dd74 00be e01c d43b 8bcc 153e
000002e0: 07ca a9bd e6c9 ad3d 625e 14be 7d12 f6bd
000002f0: aacf e63d e6dd cd3d 804d 5bbd ba3d debd
00000300: 070d f8bd ad36 83bd e0b7 5f3d abcc 20be
00000310: bc4c 4cbd c099 563d 407e 2bbd c049 e4bc
00000320: 1eea ed3d 7b05 04be 961f 9c3d bc5e 8abd
00000330: fd72 f1bd 006b 66bd 7823 56bd 37b7 233e
00000340: 3369 01be 77ee 88bd 50a7 023c a87d f83c
00000350: 8e0e f8bd 5b83 3cbe e08b 483c 469e 20be
00000360: ce28 bd3d ae6a e2bd f566 2fbe e1d4 bfbd
00000370: 9498 163d 450d ccbd 45dc 123e 28d1 803d
00000380: 63b5 20be 59e0 193e 1b96 dbbd b59d d6bd
00000390: 5e87 1dbe 2677 f4bd 99aa 1d3e 3da1 0f3e
000003a0: d6db febd b69e cf3d 90c6 6fbd 7050 1bbc
000003b0: 56e6 ff3d e663 f73d 4aee 9d3d 856d 07be
000003c0: 056f 80bd c649 ec3d 0120 003e ccaf 25bd
000003d0: 4626 b6bd 308b 20bd f5a0 0f3e bddd 92bd
000003e0: e252 fabd 98b7 acbc 9334 c3bd 91da 11be
000003f0: 5041 ba3c 009c 81ba be58 a13d b0c1 ce3c

StatefulPartitionedCall/sequential_2/dense_11/MatMul/ReadVariableOp:0 f4 [50, 150]
-0.06729013 -0.15907386 0.003739491 0.111404985 0.017047241 -0.09933533 0.1094996 0.00633049
-0.023128554 -0.1273411 -0.041019917 0.08350429 -0.10080862 -0.15107141 0.13476744 -0.09821172
0.1508697 -0.019716159 0.04081987 -0.15606996 -0.05204072 0.08933571 0.10917914 -0.15343718
0.107795715 -0.12825207 0.022101954 0.14920622 0.054787934 -0.10891361 0.13966203 0.16087657
-0.05178964 -0.06488769 -0.004365951 -0.15280908 0.0946562 -0.034112647 -0.11875994 0.06128405
0.062656015 -0.04798737 0.13865161 -0.0967879 -0.15032743 -0.15037678 -0.07586415 -0.052166052
0.08908269 -0.14936835 -0.06826796 -0.020402685 0.05232136 -0.1335043 -0.04980871 -0.08623757
0.08089107 0.016355872 -0.11613438 -0.06371527 -0.01681438 -0.17307822 -0.016545668 -0.08857104
-0.15710957 -0.109983735 -0.009846374 -0.08566691 -0.0070938766 0.074254826 0.10973501 0.07802388
0.10302621 -0.054576665 0.15973583 0.026362017 -0.16554265 -0.08324858 -0.046720356 0.1469152
-0.09905089 0.10428366 -0.15582843 0.004013166 0.15881464 0.14534453 -0.018496051 -0.008949265
0.12723398 0.08168703 -0.03222838 -0.04758124 -0.032889694 0.0057174563 0.074516386 0.10149312
-0.048663713 0.070993125 0.019844383 -0.052722134 0.031295404 0.0078011006 0.1005494 -0.17234965
0.035035223 -0.106813245 -0.15301059 0.103301466 -0.005263254 0.061016753 -0.0018399507 0.11160356
0.16384435 -0.15230094 -0.0013273507 -0.16693628 -0.040245175 -0.062331967 -0.13220796 -0.13651288
0.13920185 0.067285955 0.08075297 0.14551789 0.014962897 -0.03805615 0.1660941 0.018878445
-0.09895607 0.07766622 0.012775525 -0.06286228 0.17218584 -0.07056707 -0.034965023 -0.0009865463
0.13662949 -0.15545884 0.09139994 -0.06770052 0.054005846 -0.16649352 -0.04620491 -0.06831326
-0.14146996 -0.10487695 -0.029132351 -0.0055499673 -0.105505176 0.1521393 -0.1573654 -0.036889344
-0.08198713 -0.10312025 -0.056728683 0.06955464 -0.058540516 -0.10506418 -0.14381285 0.051417783
-0.04362738 0.046057448 -0.027615488 0.071124315 -0.14804456 -0.034758598 -0.16878492 0.116461486
-0.11071594 -0.056630485 -0.031740814 0.14846426 0.17193317 0.04647176 -0.045714974 -0.15085267
-0.013541058 -0.06849021 0.06101349 -0.124820314 -0.019041017 -0.009691104 0.10990733 -0.11198714
-0.04716143 -0.14280784 -0.10051072 0.06139745 -0.15257564 0.15578902 0.16443297 -0.043063447
0.10642329 -0.046610847 0.0061588585 0.08763474 -0.09421467 0.0042511523 -0.072327785 0.13798785
-0.113717824 0.09760511 0.091997385 -0.03948261 -0.020868167 0.15484914 0.16656643 0.09699616
0.057365134 -0.030933991 0.10726097 -0.055265762 -0.13814223 0.10942149 0.09530106 -0.0086964965
0.103718996 0.10287681 0.09384614 -0.10983239 -0.090038225 -0.17225091 0.022496939 0.16879234
0.11151597 0.13867876 -0.11103941 0.07684305 0.06256735 -0.15727375 -0.09097187 -0.14199829
-0.117624894 -0.07153752 -0.08169418 0.16107541 0.00481008 -0.14405245 0.076877296 -0.10622871
0.11429468 0.015084222 0.04167068 -0.09900315 0.032153398 -0.02388966 -0.15261255 0.036407143
-0.06445236 -0.086989105 0.050753295 -0.08820715 0.16272911 -0.1130787 0.0149537325 -0.0012325048
00000000: 68cf 89bd 42e4 22be 4012 753b 4c28 e43d
00000010: a8a6 8b3c 5270 cbbd 5441 e03d 0070 cf3b
00000020: 1878 bdbc b565 02be 8004 28bd 4c04 ab3d
00000030: c074 cebd 77b2 1abe 7a00 0a3e 3a23 c9bd
00000040: 967d 1a3e c883 a1bc bc32 273d ced0 1fbe
00000050: a628 55bd a4f5 b63d 5099 df3d a31e 1dbe
00000060: 00c4 dc3d 8354 03be 280f b53c 84c9 183e
00000070: 5069 603d 190e dfbd 9003 0f3e d4bc 243e
00000080: 6021 54bd d6e3 84bd 4010 8fbb fc79 1cbe
00000090: 1cdb c13d b4b9 0bbd 6938 f3bd fc04 7b3d
000000a0: cc51 803d 688e 44bd b0fa 0d3e bc38 c6bd
000000b0: 6fef 19be 5ffc 19be aa5e 9bbd 12ac 55bd
000000c0: fc70 b63d 04f4 18be 12d0 8bbd 8823 a7bc
000000d0: ec4e 563d 5ab5 08be 3804 4cbd 539d b0bd
000000e0: 38aa a53d c0fc 853c ddd7 edbd 277d 82bd
000000f0: 50be 89bc 6b3b 31be c88a 87bc bc64 b5bd
00000100: 55e1 20be 273f e1bd b052 21bc 2272 afbd
00000110: c073 e8bb ea12 983d c0bc e03d fcca 9f3d
00000120: 68ff d23d c88b 5fbd ca91 233e 28f5 d73c
00000130: 0384 29be 3b7e aabd d85d 3fbd f070 163e
00000140: 31db cabd ac92 d53d 7d91 1fbe e080 833b
00000150: 4ea0 223e 32d5 143e 0885 97bc f09f 12bc
00000160: a049 023e 884b a73d e801 04bd 8ce4 42bd
00000170: 58b7 06bd 8059 bb3b 0c9c 983d a0db cf3d
00000180: 9a53 47bd d864 913d b090 a23c 2af3 57bd
00000190: 9c2f 003d 60a0 ff3b d8ec cd3d 6d7c 30be
000001a0: 1881 0f3d e7c0 dabd cfae 1cbe b88f d33d
000001b0: 6077 acbb b4ec 793d 802a f1ba 6890 e43d
000001c0: d0c6 273e c7f4 1bbe 80fa adba 58f1 2abe
000001d0: 20d8 24bd ce4f 7fbd 8661 07be 08ca 0bbe
000001e0: ee8a 0e3e 38cd 893d d061 a53d a402 153e
000001f0: f026 753c c4e0 1bbd 9214 2a3e f8a6 9a3c
00000200: 7ba9 cabd 780f 9f3d 7050 513c f0bd 80bd
00000210: 7c51 303e 7885 90bd 7c37 0fbd 004f 81ba
00000220: 9ae8 0b3e 9a30 1fbe e42f bb3d 92a6 8abd
00000230: 3c35 5d3d 477d 2abe 5c41 3dbd d3e7 8bbd
00000240: 80dd 10be bac9 d6bd f8a6 eebc 80dc b5bb
00000250: 1913 d8bd 68ca 1b3e 6524 21be 4819 17bd
00000260: dee8 a7bd b630 d3bd 565c 68bd aa72 8e3d
00000270: 2ec8 6fbd e42b d7bd ad43 13be 749b 523d
00000280: a0b2 32bd bca6 3c3d e039 e2bc a0a9 913d
00000290: fe98 17be 085f 0ebd f4d5 2cbe 5c83 ee3d
000002a0: 0abf e2bd 5ef5 67bd a802 02bd 0407 183e
000002b0: 400f 303e 2c59 3e3d a03f 3bbd 1f79 1abe
000002c0: 50db 5dbc 9844 8cbd 48e9 793d cba1 ffbd
000002d0: e8fb 9bbc 70c7 1ebc 1817 e13d 8359 e5bd
000002e0: 582c 41bd 383c 12be 90d8 cdbd e47b 7b3d
000002f0: ca3c 1cbe 2887 1f3e 1e61 283e 4c63 30bd
00000300: 74f4 d93d 04eb 3ebd 40d0 c93b d879 b33d
00000310: 9ff3 c0bd 404d 8b3b 9720 94bd b04c 0d3e
00000320: e4e4 e8bd 30e5 c73d 2069 bc3d 84b8 21bd
00000330: b8f3 aabc c690 1e3e 6490 2a3e eca5 c63d
00000340: b4f7 6a3d 4869 fdbc a4ab db3d 5a5e 62bd
00000350: 2875 0dbe 6018 e03d 342d c33d c07b 0ebc
00000360: a06a d43d 14b1 d23d 6832 c03d ceef e0bd
00000370: f665 b8bd 8b62 30be 804b b83c e6d7 2c3e
00000380: 7c62 e43d ce01 0e3e a168 e3bd e45f 9d3d
00000390: 5023 803d 5f0c 21be 764f babd 0068 11be
000003a0: 52e5 f0bd 4382 92bd 474f a7bd f4f0 243e
000003b0: e09d 9d3b 7c82 13be d871 9d3d 708e d9bd
000003c0: 5413 ea3d d023 773c e0ae 2a3d 2ac2 cabd
000003d0: 48b3 033d 40b4 c3bc 7746 1cbe a81f 153d
000003e0: 99ff 83bd 5827 b2bd b0e2 4f3d f3a5 b4bd
000003f0: 76a2 263e ce95 e7bd 8000 753c 008c a1ba

StatefulPartitionedCall/sequential_2/dense_10/MatMul/ReadVariableOp:0 f4 [11, 50]
0.3011911 0.047128946 0.10960063 0.08120483 -0.18997929 0.07576129 -0.26720876 0.0027020276
0.26169008 -0.27556744 0.09400651 0.055364937 -0.09372133 0.18389276 0.081649125 -0.28427368
-0.2101484 -0.14724414 0.30094147 0.14116329 0.19240606 0.023970693 -0.30491424 0.19061661
0.2763458 0.11908147 0.2659731 -0.034163 -0.2963678 0.16996056 -0.26912954 0.16984272
0.08950737 -0.01121363 -0.029817939 -0.2210939 -0.31139252 0.29057825 -0.13070427 0.2431181
-0.2197232 0.16612786 0.03042996 0.07450366 0.29222047 0.1934833 0.01667118 -0.27754977
0.18227285 -0.05019319 -0.14567119 -0.31024405 0.003045261 0.30019665 -0.019160926 -0.05829549
0.12838784 0.16118634 -0.17355442 -0.20780885 0.09866741 0.008103639 -0.0824137 0.13650748
-0.18479589 0.25649488 0.1504938 0.18321568 -0.30171347 0.10706049 0.15931931 -0.17254893
0.26235276 0.11899218 0.23748517 0.17539522 0.14301372 0.23426998 0.2810232 -0.24309406
0.061883956 -0.20985946 0.028787494 -0.03973815 -0.14949282 -0.16517816 -0.17459401 0.21011174
0.2618791 0.106138974 -0.06871869 -0.026805222 0.14119813 0.19093138 -0.19875926 -0.21628936
0.19017035 -0.19863251 0.24030852 -0.06144324 -0.19570108 0.289339 0.25861162 -0.13000192
0.19957286 -0.23937315 0.18888909 0.09877044 0.046837628 0.19115466 -0.29110855 -0.2289673
-0.14399663 -0.037991047 -0.29509768 0.06798053 0.19295716 0.28907102 -0.19032654 -0.017816931
0.24991167 -0.10327633 -0.08149615 0.098639816 -0.15621239 0.105490685 -0.23534702 -0.1506954
-0.29033053 -0.27305982 0.17426771 0.13456291 -0.16162033 0.24305475 -0.27465004 -0.049230784
-0.18923417 0.066037446 -0.05891326 -0.15022103 0.088532 -0.187907 -0.2929951 -0.13900785
0.10723135 0.22769403 0.2236225 0.0031577945 -0.22574183 -0.25503606 -0.08142011 0.08140865
-0.019162655 0.25841647 0.1489999 -0.22937077 -0.13328502 -0.13767634 0.09352332 -0.1323795
0.27185303 -0.099801734 -0.26685432 -0.043540478 -0.042604536 0.06856862 -0.2876391 0.25999677
0.120690525 0.25684834 0.27274567 0.09351069 0.10859838 -0.27810773 0.250813 -0.049005926
-0.08835569 0.0858874 0.12665421 0.1771797 0.22440416 0.16733098 0.05602333 0.2029711
-0.09301725 -0.028202683 0.118584305 0.028571606 -0.245213 0.19078982 -0.08509727 -0.07504001
-0.113282815 0.283193 -0.09636758 -0.12574944 0.13579011 0.011895269 -0.12041387 0.038599342
0.3131296 0.0755178 -0.046380103 -0.07672766 0.2943411 -0.015249044 -0.17311962 -0.10668962
0.034738213 -0.27233654 0.17937595 -0.3066104 0.14077505 -0.13230592 -0.15523015 0.2274574
-0.28956613 0.31315756 -0.070608824 -0.09724678 0.18792504 0.3102213 0.15929294 -0.16655685
-0.18611945 0.096600264 -0.054793447 0.23998344 0.22252649 -0.29444632 -0.26653123 -0.02712974
0.30974412 0.010369211 0.27468914 -0.181631 -0.2115973 0.22283363 0.31146973 -0.26143792
-0.08612944 -0.22803068 -0.22815114 0.16534394 0.15082747 0.10690758 -0.22095451 -0.028355896
-0.2709198 -0.07424 0.05395627 -0.22776979 -0.30532533 -0.23280507 -0.11861533 -0.036827862
00000000: b835 9a3e 480a 413d 4c76 e03d b84e a63d
00000010: ee89 42be bc28 9b3d 96cf 88be 8014 313b
00000020: 3efc 853e 2d17 8dbe 7c86 c03d 58c6 623d
00000030: f8f0 bfbd 624e 3c3e a837 a73d 528c 91be
00000040: 2431 57be 2bc7 16be 0015 9a3e 1c8d 103e
00000050: 1806 453e 305e c43c b81d 9cbe 0031 433e
00000060: 327d 8d3e fce0 f33d a02d 883e 80ee 0bbd
00000070: 85bd 97be 240a 2e3e 59cb 89be 40eb 2d3e
00000080: a44f b73d 60b9 37bc c044 f4bc 7066 62be
00000090: d76e 9fbe acc6 943e 57d7 05be f4f3 783e
000000a0: 1eff 60be 6c1d 2a3e 4048 f93c 6095 983d
000000b0: ec9d 953e 7c20 463e 0092 883c 011b 8ebe
000000c0: bca5 3a3e 6097 4dbd d42a 15be 4fd8 9ebe
000000d0: 0093 473b 60b3 993e 60f7 9cbc 40c7 6ebd
000000e0: 1a78 033e 080e 253e 40b8 31be d8cb 54be
000000f0: 2412 ca3d 20c5 043c 84c8 a8bd 9ec8 0b3e
00000100: 223b 3dbe 4c53 833e 0c1b 1a3e e49c 3b3e
00000110: 307a 9abe 8842 db3d 9a24 233e abb0 30be
00000120: 1a53 863e 2cb2 f33d 502f 733e ce9a 333e
00000130: 3072 123e 78e4 6f3e 46e2 8f3e a6ed 78be
00000140: 087a 7d3d 66e5 56be c0d3 eb3c 78c4 22bd
00000150: a514 19be 7724 29be c6c8 32be 8827 573e
00000160: 0415 863e 645f d93d 62bc 8cbd a096 dbbc
00000170: 3e96 103e 8483 433e 8c87 4bbe f57a 5dbe
00000180: 04bc 423e 5266 4bbe 7013 763e e8ab 7bbd
00000190: dd65 48be 3e24 943e be68 843e 391f 05be
000001a0: d45c 4c3e 3c1e 75be 246c 413e 2848 ca3d
000001b0: d0d8 3f3d 0cbe 433e 2e0c 95be 6776 6abe
000001c0: da73 13be 809c 1bbd 0b17 97be 6039 8b3d
000001d0: 9096 453e 1e01 943e f6e4 42be d0f4 91bc
000001e0: d8e8 7f3e 8a82 d3bd 74e7 a6bd ac03 ca3d
000001f0: 24f6 1fbe 800b d83d cffe 70be e54f 1abe
00000200: 34a6 94be 7fce 8bbe 3c73 323e dcca 093e
00000210: cd7f 25be 58e3 783e ee9e 8cbe 38a6 49bd
00000220: 9ac6 41be a43e 873d 084f 71bd 8bd3 19be
00000230: 4450 b53d b16a 40be 7403 96be 1358 0ebe
00000240: 1c9c db3d a028 693e 4cfd 643e 00f3 4e3b
00000250: de28 67be 1694 82be 96bf a6bd 94b9 a63d
00000260: 00fb 9cbc 2a4f 843e 6e93 183e 2ce0 6abe
00000270: de7b 08be 07fb 0cbe 2889 bf3d 7e8e 07be
00000280: 5230 8b3e da64 ccbd 21a1 88be 8057 32bd
00000290: 1882 2ebd b46d 8c3d 6f45 93be 4c1e 853e
000002a0: 982c f73d a081 833e 52a5 8b3e 8882 bf3d
000002b0: d468 de3d 2364 8ebe 906a 803e 70ba 48bd
000002c0: d4f3 b4bd bce5 af3d a4b1 013e 986e 353e
000002d0: 34ca 653e d058 2b3e b878 653d a8d7 4f3e
000002e0: d47f bebd 5009 e7bc 54dc f23d 000f ea3c
000002f0: 1e19 7bbe 685e 433e 7a47 aebd 94ae 99bd
00000300: d200 e8bd acfe 903e 5e5c c5bd 76c4 00be
00000310: 900c 0b3e 60e4 423c 8c9b f6bd 581a 1e3d
00000320: 8652 a03e 14a9 9a3d 10f9 3dbd 6423 9dbd
00000330: e0b3 963e 20d7 79bc 4546 31be 1680 dabd
00000340: a849 0e3d b26f 8bbe 54ae 373e 0afc 9cbe
00000350: 5627 103e 347b 07be a7f4 1ebe 98ea 683e
00000360: 0342 94be 3056 a03e 5c9b 90bd 5229 c7bd
00000370: 6c6f 403e 54d5 9e3e b01d 233e e18d 2abe
00000380: 1996 3ebe 5cd6 c53d 186f 60bd 38be 753e
00000390: fcdd 633e abc1 96be c876 88be 303f debc
000003a0: c896 9e3e a0e3 293c 0ea4 8c3e 7afd 39be
000003b0: f6ac 58be 802e 643e f678 9f3e 31db 85be
000003c0: a264 b0bd e080 69be 74a0 69be ec4f 293e
000003d0: 8472 1a3e 5cf2 da3d e641 62be a04a e8bc
000003e0: 00b6 8abe 240b 98bd 4001 5d3d 7c3c 69be
000003f0: 9a53 9cbe 7464 6ebe 98ec f2bd d0d8 16bd
